src/model/keypoint_classifier/keypoint_classifier.tflite (tflite, 6632 bytes, 6 tensors)

sequential/dense/BiasAdd/ReadVariableOp f4 [20]
00000000: 10dc 813e 8e9d ac3e 5a05 65be 6719 d0be
00000010: cf86 81be 25be bbbd 9b3c 11bf 8115 1d3e
00000020: 749a 79bf 630f a83e a38d 55bf 5b6d 43bf
00000030: c652 80be 7085 46bf 4123 1cbf 6494 82bf
00000040: 3262 d7be fdaf f5be 68ed 78bf 6523 4bbe
0.25363207 0.33713955 -0.22365323 -0.4064438 -0.25298163 -0.091671266 -0.567331 0.15340234
-0.975013 0.3282424 -0.83419245 -0.7633874 -0.2506315 -0.7754736 -0.60991293 -1.0201535
-0.42067105 -0.4798583 -0.97237253 -0.1983772

sequential/dense_2/BiasAdd/ReadVariableOp f4 [6]
00000000: d0d9 fcbe fccc cbbe 2c5e 103f 286b 893d
00000010: d2ee ea3e c019 993e
-0.49384928 -0.39804828 0.56393695 0.067098916 0.4588533 0.29902458

sequential/dense_1/BiasAdd/ReadVariableOp f4 [10]
00000000: fe61 2f3e 62f0 883e 7e4b b6bd c06f 363f
00000010: 8742 d23e d70c 553d 0d8e 8abe 864b f2be
00000020: f88f 923e 1f30 a03f
0.17127225 0.26745898 -0.08901118 0.71264267 0.4106638 0.0520142 -0.270615 -0.47323245
0.28625464 1.2514685

sequential/dense/MatMul f4 [20, 42]
00000000: 0873 203d 4883 6dbe 74a9 30be 7a20 7cbe
00000010: 7e4f 353c a74e fb3d d4d5 1f3d 029e 083e
00000020: d4e5 153d a467 ca3d bd91 43be 03a7 a83d
00000030: 90a7 a73c 279f 803c 7445 b03e 9879 763a
00000040: cd53 a23e 0c28 9e3c c175 41be d350 d23d
00000050: 33e9 a93e bcb8 aebd 0a0b 703f 07cf 333d
00000060: 7d20 a83f ab0f 78bd 2c0e 82be 94e7 c23d
00000070: be34 8c3d bb02 44bd 19e1 4e3f da4a 473d
00000080: 5a7e b33f ef9c 68bd 9f8a 66be 1353 5e3d
00000090: 5f4a fcbd ab92 1a3d 3e19 9d3e 6925 003d
000000a0: 29e7 b13e da17 4f3d b181 1bbe 504f 91bc
000000b0: 71c8 a6bc 5e2c 493f dce7 263e 0e3e 223f
000000c0: 28cb 663e d607 ac3e c9ad 493e 626c b43e
000000d0: b30d 57bc 2a8d 293e 0597 09bc dabd b03d
000000e0: c5f1 b93d 3dc1 2e3d 009a 903d 936c b63d
000000f0: 0f2c f9be 684a 163d 66ad 973e 7766 87bd
00000100: 6f41 463f df2b 743d 8cd0 363f 38e9 fa3d
00000110: 717b e4bd 768e 19bd e82e 8a3e 176c 3cbe
00000120: d367 503f c135 f3bd 8409 493f 1bfd 79bd
00000130: 104e 11be 5320 973c 8460 443e 45ea 28be
00000140: aab8 dd3e 8c2f 83be 7d12 e83e f96c 71be
00000150: 709c 8b3c f4fd c73d b462 7ebe bb67 2c3f
00000160: f065 07be 482d f63e cb84 42be 4dcd bd3e
00000170: 884e 59be cfbe a23e bc1a 81bd cd9c 6c3e
00000180: 59cb 32bd f50a b33b 60df b43b f859 a7be
00000190: 6f9f cbbb fd4f 79bf 1bfb 133e 768a 8b3e
000001a0: d47f ddbd a404 a53d 8e4e 40bd 9ace a5be
000001b0: 22ee 103a c2e3 22bf f15c 983e 0ac1 a93e
000001c0: 4090 35bd 17dc dc3d 2580 37bc 23b3 9fbe
000001d0: 4e9e 95bd 8e38 37bf 7d5e 513e 0a11 d33e
000001e0: 6efe d13b 2433 703e eba2 9d3d 42d5 aabc
000001f0: 998e 9e3d 166e 07bf 80e7 5ebd 8e94 88be
00000200: 0060 6bbe 6d3a 293f 8dfc 9fbc 9b92 0a3e
00000210: 0ea1 923d a703 87bd 6b18 093e 3ead 79be
00000220: 4e99 823e 4295 81bd e3fd 9a3e 4318 38be
00000230: 21b5 bebd 6b40 47be 2abf 59be d2e4 10be
00000240: 19cb 693f 9b12 77bd 2292 063e debd dcbc
00000250: f357 b1be 8ae3 083e c8a0 edbe c2f5 dc3d
00000260: f9a5 913f e0b5 54bd a88a 8f3e 8c2e a7bd
00000270: 581e 98be e769 5b3e 1059 ebbe a23f 3a3e
00000280: 30e4 7c3f 6144 33be 84b4 c83e 1e95 e1bd
00000290: 5b2c fd3c a384 043e b7d1 39be 0b7b 323e
000002a0: 100f 993c 6be9 96be dfb5 ccbe 829f 523e
000002b0: 203c 0bbe da7d 3fbe 0293 4cbe e314 c4be
000002c0: b1ed 49be 81bb ffbe e3bb 6ebe b82f 8fbe
000002d0: 5ced 24be f7b6 7f3e 1a31 c2bc d551 ee3e
000002e0: 70ba 24bd af9f 1d3f c171 f5bd a189 5fbd
000002f0: 64ef 59be 24f7 c03e 7599 ad3d 7010 a73e
00000300: bae9 a83e aa69 4e3e efff fb3d f56c f6bd
00000310: 0e05 663c b958 cc3e c969 893e ecbc ee3e
00000320: 21c8 993c 86ab ddbd 39a9 ad3d 9bf6 abbd
00000330: fa7c f0bd f0d8 e23e 0344 863e f4c9 1b3f
00000340: d2f9 ce3e 261c 243e c292 dfbd 4fd1 78be
00000350: 675b e83e 4f6f 2c3d 6384 843e bd17 8d3e
00000360: 7a88 793e 3801 a53e 3383 853e d0c7 a33e
00000370: aede 733e 0457 f03d c6e8 9f3c c447 d63d
00000380: 300c e73a 2e3f f33c 23e8 8d3d 419d 32bd
00000390: b318 5abd 7d2a ba3d d671 1bbe 9838 dd3d
000003a0: 75dd bf3c 1da2 73be eb24 f93c 17fc fbbe
000003b0: f2ec 60be 90e9 643e 0e71 2abe 1f27 9c3d
000003c0: b003 8bbd a226 05bf edf1 bfbe 7a03 96bf
000003d0: 9b30 e3be e810 6e3e eeec 91be 5147 e43d
000003e0: a4c0 bcbe 1589 7cbd 5828 7dbd 6a0a 99be
000003f0: 8016 cf3b c4f0 743e b04b e63e 053d 8cbf
0.039172202 -0.23194611 -0.17252141 -0.24621764 0.011066316 0.12270861 0.03902228 0.13341525
0.036596134 0.09883049 -0.19098563 0.0823498 0.020465642 0.01570089 0.3442799 0.0009402274
0.3170456 0.019306205 -0.18892576 0.10269322 0.3318573 -0.08531329 0.93766844 0.04389861
1.3134915 -0.060561817 -0.25401437 0.09516826 0.06845997 -0.047854166 0.8081222 0.04865537
1.4022934 -0.05679029 -0.22513817 0.054278444 -0.12318873 0.03773753 0.3068332 0.031285677
0.34746674 0.050559856 -0.15186192 -0.017738014 -0.02035925 0.78583324 0.16299385 0.6337594
0.22538435 0.33599728 0.196952 0.3523894 -0.013125825 0.16557756 -0.008397822 0.08629961
0.09079317 0.042664755 0.07060623 0.08907428 -0.48666427 0.036692053 0.2962448 -0.066113405
0.77443594 0.05961215 0.7141197 0.12251514 -0.11156357 -0.037489377 0.26988912 -0.18400608
0.81408423 -0.11875487 0.78530145 -0.061032396 -0.14189935 0.01844803 0.19177443 -0.16495617
0.4330495 -0.25622213 0.45326605 -0.23576726 0.017042369 0.097652346 -0.2484234 0.6734578
-0.1322248 0.48081422 -0.18995969 0.37070695 -0.21221364 0.317862 -0.06303927 0.2310669
-0.04365096 0.0054639527 0.0055197924 -0.32685828 -0.0062140743 -0.9738768 0.14451258 0.27254075
-0.10815397 0.08057526 -0.046949916 -0.32384187 0.00055286486 -0.6362878 0.2975841 0.3315509
-0.04432702 0.10784166 -0.011199986 -0.31191358 -0.07305585 -0.7157067 0.204462 0.41223937
0.006408504 0.23457009 0.0769709 -0.020853642 0.07742042 -0.5290235 -0.054419994 -0.26675838
-0.2298584 0.66104776 -0.019529605 0.13532488 0.07159625 -0.065924935 0.13388221 -0.24382493
0.25507587 -0.06327297 0.30271825 -0.17978005 -0.09311891 -0.19458167 -0.2126433 -0.14149788
0.9132553 -0.060320478 0.13141683 -0.026946004 -0.34637412 0.1336805 -0.4641173 0.10789062
1.1378776 -0.051931262 0.28035474 -0.08163175 -0.2971065 0.21427117 -0.45966387 0.18188336
0.98785686 -0.17506553 0.39200222 -0.1101477 0.03090494 0.12941222 -0.18146406 0.1742975
0.01868394 -0.2947496 -0.39982507 0.2056866 -0.13597155 -0.18700352 -0.19977954 -0.38297185
-0.19719578 -0.49947742 -0.2331386 -0.27966094 -0.1610617 0.2497214 -0.023705054 0.46546808
-0.040216863 0.6157178 -0.119845875 -0.054574613 -0.21282727 0.37688553 0.08476535 0.32629728
0.3299082 0.20157495 0.12304675 -0.12032501 0.014039291 0.3991144 0.2683852 0.4662851
0.018772187 -0.10823731 0.08479542 -0.08396646 -0.117425874 0.44306135 0.26223764 0.6085503
0.40424973 0.16026363 -0.10916664 -0.24298595 0.45382234 0.04209834 0.25882253 0.27557173
0.24368468 0.32227492 0.2607666 0.31988382 0.23815414 0.11735347 0.019520175 0.10462907
0.0017627534 0.029693212 0.06929042 -0.043607 -0.05324621 0.09090135 -0.15180144 0.1080181
0.023421029 -0.2379231 0.030413112 -0.49215767 -0.21965387 0.22354722 -0.1664469 0.07624649
-0.06787813 -0.52012074 -0.37489262 -1.1719811 -0.4437302 0.23248637 -0.28501076 0.11146415
-0.36865723 -0.06165417 -0.061806053 -0.29890758 0.006319821 0.2391997 0.4497962 -1.0956122

sequential/dense_1/MatMul f4 [10, 20]
00000000: 27ce 863e fb42 a93e a9cd e53e 5a2b b9be
00000010: 3c7b f33e a743 173e 82a7 8f3d 1bad 033e
00000020: 1a66 8dbd a8b1 de3e 3066 543d 1619 0b3f
00000030: c93f 8f3e 0209 a73d 40a5 52be cb26 7cbe
00000040: 5763 3d3f ec62 8c3d 2427 d9be bb2f 3e3f
00000050: 4e93 e2be 7daa 9c3d 02f7 ca3d bd26 3bbe
00000060: 3ca2 1cbf a30b a63e 3a54 7dbd fe91 c0bc
00000070: 5d5e 12be e9be 4b3f cd7a 813e 22c9 e33e
00000080: 2bca 2d3f d99d a63e 0b8b 54bc 5b2d 453e
00000090: ec8d 0ebe ee0b b83e 5f76 1cbf 2148 d43e
000000a0: 2dfa 373e 6834 af3d 2ebb e93e af22 62be
000000b0: e00d 8f3e 4009 3abe f684 37bf 23f8 a5be
000000c0: a597 81be 4ca6 e9be efca 35bf 963e afbd
000000d0: 5a5a 373f 1582 3dbe 6622 d3bd 718c a9bd
000000e0: 7bdc 8bbd 61af ac3e 2be1 053f ea5f c1be
000000f0: c966 febe 88de 60bf 5d86 8fbf 7421 903e
00000100: 6a03 023f e841 b0bf 8a5a 49bf 4e5c 31bf
00000110: d84c 523d 93ac 013f 1158 93bf 3b57 fd3d
00000120: 21ce ca3e ddf3 c9bf a793 98be bfd5 363f
00000130: 8f9b 473e 1bfd 97bf 9523 083e 09af 493e
00000140: efe0 a53e e0f9 273f d663 0a3f 5064 463f
00000150: 60b9 a9be c435 35bd 137c 63bc 0d39 8b3f
00000160: b77d b4bd e20d 4e3f d45d c2bd 6635 b5be
00000170: 96cb 0ebf 21ab 3cbd 5879 1b3f b813 90be
00000180: 51ea 84be c846 5a3f 1f58 853d bdb3 ccbe
00000190: ae88 3f3f 454f e03e 9367 c23e 406c 1d3f
000001a0: 6b73 573f 84a9 84bc e5b4 8fba fa11 8d3e
000001b0: 6ae1 35bb 1911 6e3f 88d5 853c e030 7b3f
000001c0: 171a 393f 1350 c33d 6691 f83e 7ba9 af3f
000001d0: 2b69 873f b45e 393f 061b 0a3f 32c1 0f3f
000001e0: 1e95 373f 9331 283f 17f4 e83e 83d0 f2bd
000001f0: e3a9 003e aa20 5e3f bea7 823f 1b1c f33e
00000200: 2f8f abbe e213 423d 77c9 473f 6ee7 443d
00000210: dfc6 3f3e 3149 7c3f 86d0 b13e 6688 bc3d
00000220: 919c e43c e457 133f 160a 233e df77 e43d
00000230: b3c1 6c3f 6aa2 113f ee65 843d 20a6 d43e
00000240: 041d 353f 4e99 4b3f b109 2a3f 6900 ca3d
00000250: ace3 ee3e b09c 203f fcda a03f 7c80 7e3e
00000260: 19c5 3c3f 0f4c 243f 42f3 ce3f 7bf0 1a3e
00000270: 1964 803e 7e0e 3f3f 7218 983e c115 2b3f
00000280: 19a3 a1bd 8c79 983e 7c09 f33d b215 b6bd
00000290: bc44 20be 3904 3e3d ef73 373f ba93 48be
000002a0: 4ce3 e23f 095e a2be b2f1 68bc 0869 033f
000002b0: 7181 b43d c803 0d3e fbc1 be3e d68d 773f
000002c0: bbe1 a13e 3448 8e3d bd29 093f 137e 563d
000002d0: 2ec9 5cbf 9a05 6fbf 7b26 6b3f 4813 e03e
000002e0: 83c7 4ebf 631c 26bf ed85 f3be c01e 073f
000002f0: 0787 a9bd 55d6 73be 8563 ccbe 887b a93d
00000300: 5c66 8abf 3b72 debe cb65 86bf 123e 3d3e
00000310: 38af d93c a925 99be 29ca 1f3f 1c12 adbf
0.26329157 0.33058915 0.4488347 -0.36165887 0.47554958 0.14771901 0.070143715 0.12859003
-0.0690424 0.43494916 0.051855266 0.54335153 0.27978352 0.08156015 -0.2057085 -0.24624173
0.73979706 0.06854805 -0.42412674 0.7429158 -0.4425301 0.076497056 0.09910394 -0.18276496
-0.6118505 0.32430753 -0.061847903 -0.023507114 -0.14293809 0.7958818 0.25289002 0.4448939
0.6788661 0.32542303 -0.012972604 0.19255583 -0.13921326 0.35946602 -0.6111812 0.4146128
0.17966528 0.085549176 0.4565062 -0.22083543 0.27940273 -0.18167591 -0.7168726 -0.32415876
-0.25311008 -0.45634687 -0.7101278 -0.08556859 0.7162224 -0.18506654 -0.10309295 -0.0827874
-0.06829163 0.33727553 0.52296704 -0.3776849 -0.49687794 -0.87839556 -1.121288 0.28150523
0.5078646 -1.3770113 -0.78653777 -0.6928147 0.051342815 0.5065395 -1.1511251 0.123701535
0.3961039 -1.5777546 -0.2980015 0.714199 0.19492935 -1.1874117 0.13294823 0.19695677
0.32398173 0.65615654 0.5405859 0.77496815 -0.33149242 -0.044240728 -0.013884562 1.0876786
-0.08813041 0.80489933 -0.094905525 -0.35392302 -0.557794 -0.04606164 0.6073203 -0.28140044
-0.2596002 0.85264254 0.065109484 -0.3998088 0.7481793 0.43810478 0.37969646 0.614933
0.8416049 -0.016194113 -0.0010963945 0.27552778 -0.0027752765 0.9299484 0.016337171 0.9812145
0.72305435 0.09536757 0.4854843 1.3723596 1.057897 0.7241013 0.53947484 0.5615417
0.7171191 0.65700644 0.45498726 -0.11856177 0.12564807 0.8676859 1.0207441 0.4748238
-0.33507678 0.047382243 0.78041786 0.04807227 0.18728207 0.9854918 0.34729403 0.092057034
0.027906688 0.57555985 0.15921816 0.11155676 0.9248306 0.5688845 0.06464754 0.41532993
0.707474 0.795308 0.6642104 0.098633595 0.46658075 0.62739086 1.2566829 0.248537
0.7373825 0.64178556 1.6167986 0.15130799 0.25076368 0.7463149 0.2970615 0.6683007
-0.078924365 0.29780233 0.118670434 -0.08890857 -0.1565122 0.046390746 0.71661276 -0.19587603
1.7725616 -0.31712368 -0.014217781 0.5133214 0.088137515 0.13770974 0.3725737 0.967008
0.3161753 0.069473654 0.5357931 0.052366327 -0.86244476 -0.9336792 0.9185559 0.4376471
-0.8077318 -0.64887065 -0.47563115 0.52781296 -0.082777075 -0.2381223 -0.39919677 0.08275515
-1.0812488 -0.43446526 -1.0499815 0.18480709 0.026572809 -0.29911545 0.62417847 -1.3521152

sequential/dense_2/MatMul f4 [6, 10]
00000000: 2567 6b3f bbe5 fc3e e7c2 123f 2915 2abf
00000010: 4374 f43e 86fb ca3d d824 293f 6608 873e
00000020: b412 39bf 2ab2 04bf 3828 bebe 4ed1 a0be
00000030: ad7b 2abf 07ff 2fbf d056 103f beca fc3e
00000040: b0d4 e83e c8c5 f53e 0a90 153f 7fcd 2ebe
00000050: c24a 96bf a946 aebf 798d 1d3c 1510 833e
00000060: 1208 403f 792c 0dbf 2f0f 9ebe 785a 13c0
00000070: 7aad 8abf 899c ad3f 36f2 e03e 03fc 073f
00000080: 9a62 203d 2b06 963f 227f 0bbe f881 743e
00000090: 1858 d1bf cc4b cfbd 296f 9ebe e367 cbbf
000000a0: e28d 70bf c4d6 093e 20cd 2fbf 61af 683d
000000b0: 31a5 59bf b55d d9bf 09bf 643f 380d eb3e
000000c0: c69f 463f 613f ddbe c27d 2fbe 3cab 6bbe
000000d0: 8439 f93e 8d99 efbe eed5 afbf aa89 8d3e
000000e0: 96f4 47bf 0b05 7cbf 5bc2 2b3f 7747 3d3f
0.9195426 0.4939402 0.5732865 -0.6643854 0.4774495 0.099112555 0.66071844 0.26373595
-0.72294164 -0.51834357 -0.3714006 -0.31409687 -0.66594964 -0.68748516 0.56382465 0.4937343
0.45474768 0.48002458 0.5842291 -0.17070578 -1.1741564 -1.3615314 0.009616249 0.25598207
0.75012314 -0.55145985 -0.3087096 -2.3023968 -1.0834191 1.3563396 0.43934792 0.53118914
0.039156534 1.1720632 -0.13622716 0.23877704 -1.6355009 -0.10121879 -0.30944183 -1.5891079
-0.93966496 0.13460833 -0.6867237 0.05680788 -0.8501769 -1.6981722 0.89353997 0.45908523
0.77587545 -0.43212417 -0.17137817 -0.2301454 0.48676693 -0.46796837 -1.3737161 0.27644092
-0.78107584 -0.98445195 0.6709344 0.7393717
